models/ltm_weights.pt (torch, 796807 bytes, 12 tensors)

temporal_model.input_proj.weight f4 [128, 2]
-0.7539048 -0.068774 -0.5134075 -0.098836675 -0.14672418 -0.4703505 0.4391895 0.2690628
-0.7767444 0.3800259 -0.61363125 0.24918732 -0.6114673 0.6448679 -0.10179084 0.81772864
-0.27037925 0.8409539 0.2990952 -0.8323232 -0.3700838 0.78339887 -0.39236507 0.4165618
0.4095809 0.38738608 -0.41627908 -0.094918035 -0.6553921 -0.56850994 0.0035192538 0.7477107
0.09599595 -0.6439693 0.2656304 0.74924207 0.5089759 -0.6885242 0.592944 0.25084463
0.35940644 0.36651394 -0.7486626 0.2918393 -0.1592309 -0.31728342 -0.24655363 -0.3476418
-0.106793605 -0.29826415 0.46504247 -0.7948726 0.4610891 -0.27124837 0.39530292 0.21941297
-0.7214856 -0.03373126 0.23550744 -0.38355297 -0.31222874 -0.42262298 -0.8511579 0.27998257
0.13559906 0.5368803 0.12576072 0.35444427 -0.19552806 0.821986 0.76658356 0.6694645
-0.77063936 -0.25874197 -0.73632383 -0.71200365 -0.7919359 0.15996811 0.6350811 -0.5693561
-0.40553966 -0.5161268 0.15519455 -0.64544874 0.15178464 0.18920894 0.41211614 0.48496515
-0.077445254 -0.83755434 0.74308914 0.49281964 -0.07174485 -0.6535363 0.50001615 0.325624
-0.029523268 0.59999824 0.49907053 -0.077229746 0.65918046 0.102142856 -0.19936529 -0.7950641
-0.40821224 0.19850494 -0.77530545 0.21294203 0.022194093 -0.091360494 -0.31744337 -0.77548003
-0.40129873 0.65101355 -0.8586123 -0.12269692 0.31352508 -0.80641454 -0.2156019 0.743897
-0.7038819 -0.3687465 -0.6812461 0.53434336 0.5546129 0.12799884 0.48701432 0.3639507
0.41285297 0.49155933 -0.007467146 -0.5866892 -0.32917744 -0.036698524 -0.445154 0.16374606
-0.10876718 -0.8876131 0.0012596645 -0.2626816 -0.35098064 -0.7006388 0.3810136 -0.44109
0.48634836 0.59305745 0.47490266 -0.68793786 -0.5957209 0.24647042 0.7899693 0.7250455
-0.34165624 -0.055890054 -0.62324005 -0.14898099 0.35699728 0.36593956 0.03669304 0.77852696
-0.22490086 0.27683887 0.3340467 0.59782445 -0.27817822 0.66032964 -0.7862561 -0.73737186
0.35299382 -0.32870117 -0.7952087 -0.58700645 -0.061285198 0.45607555 0.0150143765 -0.21617782
-0.12563865 0.3204599 -0.52998644 0.35947585 0.49181798 -0.67602164 -0.581356 -0.63296926
-0.14352685 -0.7807484 0.22235051 -0.4788124 0.609343 0.022557866 -0.7817632 0.15243699
-0.14193954 -0.12768236 0.32737112 0.7980117 -0.2877483 0.55221003 0.14169414 0.4615571
-0.037052915 -0.45496804 -0.26860878 -0.6662876 -0.57233965 0.6353968 0.72449917 0.2237659
0.3916798 -0.70333016 0.2986766 -0.6597873 -0.072171524 -0.6476358 0.26091874 -0.70788616
-0.7113685 -0.23564664 -0.3288607 0.6823166 0.60488564 0.43431443 0.589368 0.5085877
-0.42352414 0.6001375 0.41725564 0.5882758 0.49723646 0.6018473 0.6670485 0.052067857
0.7975889 -0.041306537 -0.77479434 -0.25453877 0.38483822 0.22136633 0.20701927 0.73952705
0.6833245 0.123101495 -0.71046746 0.48482713 0.7596588 -0.11166426 0.47650224 -0.28136843
0.83703965 0.049964216 -0.20003374 0.56356806 0.8125549 -0.048380084 -0.59024715 0.091192946
00000000: e8ff 40bf 62d9 8cbd ad6e 03bf e26a cabd
00000010: dd3e 16be c8d1 f0be 72dd e03e 99c2 893e
00000020: b9d8 46bf c192 c23e f016 1dbf f62a 7f3e
00000030: 1f89 1cbf 1016 253f b777 d0bd aa56 513f
00000040: 266f 8abe c148 573f 0223 993e 2213 55bf
00000050: a07b bdbe d48c 483f 13e4 c8be 9747 d53e
00000060: 96b4 d13e 7857 c63e 8822 d5be 6364 c2bd
00000070: c7c7 27bf de89 11bf 48a3 663b f869 3f3f
00000080: 8699 c43d 2cdb 24bf b500 883e 54ce 3f3f
00000090: 3f4c 023f 1f43 30bf 2ecb 173f b56e 803e
000000a0: 1f04 b83e b7a7 bb3e 5aa8 3fbf f66b 953e
000000b0: 6d0d 23be f972 a2be 8e78 7cbe 1bfe b1be
000000c0: 9bb6 dabd 14b6 98be 0c1a ee3e c57c 4bbf
000000d0: df13 ec3e 11e1 8abe 2565 ca3e cbad 603e
000000e0: 48b3 38bf ca29 0abd dd28 713e 0e61 c4be
000000f0: 72dc 9fbe 0a62 d8be 7ce5 59bf e059 8f3e
00000100: 7bda 0a3e fd70 093f 6bc7 003e b879 b53e
00000110: 8238 48be ad6d 523f d23e 443f 0762 2b3f
00000120: 9f48 45bf d479 84be b87f 3cbf df45 36bf
00000130: 50bc 4abf aece 233e ad94 223f 52c1 11bf
00000140: e5a2 cfbe e320 04bf 52eb 1e3e 213c 25bf
00000150: 6f6d 1b3e fdbf 413e e300 d33e 5a4d f83e
00000160: 9e9b 9ebd f669 56bf 173b 3e3f db52 fc3e
00000170: f7ee 92bd 284e 27bf 0f01 003f 30b8 a63e
00000180: c8da f1bc 7c99 193f 2c86 ff3e a12a 9ebd
00000190: 0dc0 283f 4630 d13d 6a26 4cbe 5289 4bbf
000001a0: 3201 d1be e144 4b3e 6b7a 46bf 7a0d 5a3e
000001b0: 63d0 b53c 361b bbbd f087 a2be dc85 46bf
000001c0: 0777 cdbe d3a8 263f 04ce 5bbf 8648 fbbd
000001d0: 5c86 a03e 2f71 4ebf bfc6 5cbe 0970 3e3f
000001e0: 9b31 34bf 57cc bcbe 2566 2ebf baca 083f
000001f0: 1cfb 0d3f 2112 033e f159 f93e bf57 ba3e
00000200: 7761 d33e aaad fb3e f6ae f4bb 4331 16bf
00000210: f289 a8be 3151 16bd 3aeb e3be 0cad 273e
00000220: 54c1 debd 9d3a 63bf 541b a53a 347e 86be
00000230: bcb3 b3be 105d 33bf 3714 c33e 8cd6 e1be
00000240: a702 f93e 9dd2 173f 7126 f33e b21c 30bf
00000250: 2a81 18bf be62 7c3e 6e3b 4a3f 959c 393f
00000260: 91ed aebe f8ec 64bd a98c 1fbf 798e 18be
00000270: 59c8 b63e 6e5c bb3e 714b 163d 8b4d 473f
00000280: 694c 66be d3bd 8d3e 2b08 ab3e 060b 193f
00000290: 606d 8ebe 5d0b 293f 1448 49bf 67c4 3cbf
000002a0: 9bbb b43e 854b a8be cc92 4bbf 0e46 16bf
000002b0: 3006 7bbd bc82 e93e dcfe 753c b85d 5dbe
000002c0: 6ba7 00be 5213 a43e 31ad 07bf 380d b83e
000002d0: 91cf fb3e c10f 2dbf bfd3 14bf 460a 22bf
000002e0: b4f8 12be 21df 47bf daaf 633e e626 f5be
000002f0: e7fd 1b3f 46cb b83c a221 48bf 7118 1c3e
00000300: 9958 11be 2abf 02be 309d a73e 7f4a 4c3f
00000310: bf53 93be a35d 0d3f 4518 113e 3651 ec3e
00000320: ccc4 17bd 92f1 e8be 1787 89be d391 2abf
00000330: da84 12bf 5da9 223f c778 393f e322 653e
00000340: 418a c83e 720d 34bf 24ec 983e d2e7 28bf
00000350: aace 93bd 76cb 25bf 2497 853e 0738 35bf
00000360: 3f1c 36bf 5a4d 71be 6e60 a8be 4dac 2e3f
00000370: c9d9 1a3f 765e de3e d2e0 163f ce32 023f
00000380: 28d8 d8be 9ca2 193f 88a2 d53e 3e99 163f
00000390: c795 fe3e aa12 1a3f b1c3 2a3f 1b45 553d
000003a0: c92e 4c3f 0b31 29bd ec58 46bf e852 82be
000003b0: 8409 c53e dbad 623e dcfc 533e a551 3d3f
000003c0: 5bee 2e3f a31c fc3d 32e1 35bf 433b f83e
000003d0: 0079 423f 3bb0 e4bd 1af8 f33e 860f 90be
000003e0: 3b48 563f 47a7 4c3d a5d5 4cbe ff45 103f
000003f0: 9903 503f 322a 46bd 701a 17bf 5ec3 ba3d

temporal_model.input_proj.bias f4 [128]
0.3012587 0.53293115 -0.640259 -0.1063684 0.56641394 0.562469 0.2645066 -0.459939
-0.30546984 0.00012275578 -0.07415231 0.15289384 -0.14648323 0.035883803 0.4882406 0.10597234
0.42833337 -0.6157585 -0.12064029 0.10340563 0.3974108 0.11706822 -0.48231196 0.20438792
0.39652422 0.42133078 0.074307315 0.10525369 -0.62916374 -0.10798763 0.29259586 0.21844944
0.6184969 -0.50315624 0.41548577 0.4293783 0.20582938 -0.4761633 0.0660241 -0.58507216
-0.38852686 0.1537017 -0.4299567 -0.57367814 -0.05473858 -0.580088 0.13223118 -0.58831257
0.53940916 0.600129 0.5344148 0.09673088 -0.32379472 0.5934212 -0.57538915 -0.3861945
0.33952305 0.34079415 0.10455907 -0.61640835 -0.5017683 0.21139863 0.00036726586 0.57680583
0.37092218 -0.28607687 -0.30677927 -0.04415083 -0.031347644 0.31931123 0.25768298 0.11780493
0.23753075 -0.050566547 -0.08802327 -0.47344375 -0.23824868 0.14181116 0.064695984 -0.4687723
-0.07350331 0.30657095 -0.44116977 -0.17317833 -0.07519872 0.1911157 0.4456386 -0.32912597
-0.5790419 0.37081522 0.3958267 0.034101937 0.0643901 0.26310542 -0.4158011 0.45756507
-0.5502142 0.007314344 -0.6102276 -0.5286784 -0.21491031 -0.61282 0.40879184 -0.35316548
0.54331106 0.48133233 0.2890127 0.13766402 0.28645083 -0.32798016 0.084618516 -0.064469226
-0.123860456 0.2975166 0.30268177 -0.49841812 -0.6203917 0.5694669 0.2714778 0.43630835
-0.17771463 0.5120337 -0.032828707 0.4386293 0.02207574 -0.37548217 -0.0002637422 0.41441783
00000000: 953e 9a3e 2d6e 083f 04e8 23bf add7 d9bd
00000010: 8100 113f f8fd 0f3f 696d 873e 207d ebbe
00000020: 8b66 9cbe 01b8 0039 2bdd 97bd 3490 1c3e
00000030: b3ff 15be e5fa 123d acfa f93e 0708 d93d
00000040: 834e db3e 59a2 1dbf 4212 f7bd 55c6 d33d
00000050: 6e79 cb3e 77c1 ef3d 98f1 f6be 114b 513e
00000060: 3905 cb3e abb8 d73e 6f2e 983d 3f8f d73d
00000070: e010 21bf 9e28 ddbd 20cf 953e 36b1 5f3e
00000080: d055 1e3f d9ce 00bf 8dba d43e 79d7 db3e
00000090: f0c4 523e adcb f3be a537 873d 4ac7 15bf
000000a0: feec c6be fa63 1d3e 4923 dcbe 92dc 12bf
000000b0: 9035 60bd a680 14bf 9c67 073e a79b 16bf
000000c0: b816 0a3f 0ea2 193f 69cf 083f d71a c63d
000000d0: 6cc8 a5be 74ea 173f b44c 13bf 49bb c5be
000000e0: f7d5 ad3e 927c ae3e 1123 d63d f0cc 1dbf
000000f0: e373 00bf e278 583e 978d c039 8ca9 133f
00000100: 83e9 bd3e ab78 92be 2c12 9dbe 80d7 34bd
00000110: 6366 00bd c37c a33e 06ef 833e b643 f13d
00000120: 433b 733e de1e 4fbd 8b45 b4bd 3867 f2be
00000130: 76f7 73be f236 113e 547f 843d ec02 f0be
00000140: e788 96bd def6 9c3e 01e1 e1be a955 31be
00000150: c901 9abd d6b3 433e be2a e43e 3383 a8be
00000160: 173c 14bf 7edb bd3e cca9 ca3e 79ae 0b3d
00000170: f5de 833d c1b5 863e e2e3 d4be f845 ea3e
00000180: d6da 0cbf 2aad ef3b e037 1cbf 7857 07bf
00000190: 7311 5cbe c6e1 1cbf 2a4d d13e 1bd2 b4be
000001a0: 6f16 0b3f 3171 f63e 79f9 933e ccf7 0c3e
000001b0: afa9 923e 04ed a7be 794c ad3d 7108 84bd
000001c0: 8daa fdbd 1954 983e 1bf9 9a3e a930 ffbe
000001d0: fed1 1ebf 95c8 113f 23ff 8a3e cf63 df3e
000001e0: d3fa 35be a414 033f 6577 06bd 0594 e03e
000001f0: 2fd8 b43c 333f c0be e146 8ab9 932e d43e

temporal_model.conv_layers.0.0.weight f4 [128, 128, 3]
0.016884018 -0.022718787 -0.02495285 -0.041791998 -0.07415893 -0.03811988 -0.021196386 -0.000768885
-0.038166743 0.018189184 0.08930382 0.06569549 -0.021817895 0.00032835963 0.009101134 0.013783422
-0.012947224 -0.00833869 -0.030985922 -0.04446519 -0.04403415 0.03973274 0.050763886 0.029214682
-0.020630568 0.031144096 0.059375644 -0.0038885481 -0.030078502 0.05272912 -0.038530767 0.040175587
0.033380967 0.03981418 0.013059463 0.013126801 0.0075814934 0.038756803 -0.028731287 0.023956439
-0.036030274 -0.04846913 0.010858801 -0.070514776 -0.011256652 0.004122773 0.006527702 0.03387434
0.0023928692 -0.0082485 -0.00550412 0.005443576 0.03340413 0.0019411751 -0.017989377 0.02516089
0.03126669 0.06502536 0.092654474 0.012565286 -0.0036829452 0.01842817 0.030165799 0.0029037844
-0.027075592 -0.041738093 -0.02654363 0.0018202072 -0.003448287 0.012693784 -0.025805246 0.005274034
-0.015875135 0.025182875 -0.041906863 0.024247168 -0.0001480824 -0.045270573 0.05957811 0.08594264
0.007159906 0.023775602 0.029768065 -0.00094518374 -0.028658569 0.024771571 0.013690864 -0.036316752
0.06523513 0.045975726 -0.023449756 -0.007236534 0.032551 -0.027037665 -0.017669033 -0.05221403
0.053484198 0.041161273 -0.03016845 -0.012839968 0.013406523 0.058567014 -0.0031539504 0.01566048
-0.03636428 0.03743615 0.005087026 -0.0014499128 -0.044053536 -0.09665901 -0.04751303 -0.034288198
-0.006522813 0.0050282236 0.02432961 -0.098556355 0.0070888414 0.007578069 0.040927406 -0.0025659236
0.018406611 -0.008131671 0.016982172 0.035382073 0.011476465 -0.012049279 -0.04060044 -0.020262744
-0.024074076 0.00025653702 0.014862366 0.0031282776 -0.05173939 -0.035145056 0.032148793 -0.00069022895
-0.002974442 0.0062614838 0.018350357 -0.040478524 -0.029159242 0.024796749 0.07763754 -0.03357322
-0.03865808 0.0072743176 0.025267523 0.01592063 0.047299143 -0.030623948 0.016133744 0.0660233
0.025106762 -0.0015582165 -0.0161855 0.030710645 0.040947065 0.021941153 0.027166963 -0.047019243
-0.051586784 -0.0041513597 -0.046595316 0.04425227 0.038462378 -0.050644744 0.003861575 0.012599099
-0.045776956 -0.044895492 -0.012602048 -0.062084846 -0.05191793 -0.066698596 0.027847042 0.013882127
-0.0039028574 -0.038643178 -0.030860014 0.05381099 -0.048865475 -0.010332301 -0.033583667 0.0013095374
-0.046585847 0.031062061 0.003004055 0.10764433 0.049051404 0.011131337 0.05822254 -0.031850837
0.017794188 -0.0012456228 0.008908806 0.026654787 0.01584864 -0.0472363 0.044446297 -0.014680986
0.001413504 0.006721984 -0.06718429 -0.027942955 -0.048824232 -0.022901166 0.027463896 -0.010950841
-0.032386597 0.020761611 -0.029464975 -0.0001774994 0.018376308 0.027667344 0.072867535 -0.032814752
-0.028837554 -0.016584262 -0.01278943 -0.01632987 0.051386684 0.033017036 -0.031277634 -0.07523528
0.018308938 0.009271566 0.034440607 0.045249376 0.032174017 -0.0027121217 0.03235191 -0.003584501
-0.087797984 0.013474276 0.039555788 0.0886252 0.043671317 0.013013426 -0.001808898 -0.032809902
-0.019617906 0.004265271 -0.03437943 0.045374088 0.047163025 -0.01706702 -0.040008612 0.03666149
-0.027636418 -0.069108084 -0.02598911 -0.011077947 0.046745572 -0.0029915927 -0.026561838 -0.067315966
00000000: 5a50 8a3c c01c babc eb69 ccbc 162e 2bbd
00000010: a3e0 97bd 9723 1cbd 0ba4 adbc 008f 49ba
00000020: bb54 1cbd 7c01 953c ece4 b63d 5b8b 863d
00000030: 71bb b2bc af27 ac39 ec1c 153c ddd3 613c
00000040: 9820 54bc 009f 08bc 30d6 fdbc 2221 36bd
00000050: 275d 34bd ccbe 223d cbed 4f3d a153 ef3c
00000060: 7001 a9bc e721 ff3c e033 733d 03d7 7ebb
00000070: 3167 f6bc 7dfa 573d 70d2 1dbd 288f 243d
00000080: 7bba 083d 3214 233d 5cf7 553c cb11 573c
00000090: 2d6e f83b 74bf 1e3d e05d ebbc 4b40 c43c
000000a0: 7b94 13bd 9187 46bd 1de9 313c 0d6a 90bd
000000b0: d26d 38bc 5418 873b 55e6 d53b d2bf 0a3d
000000c0: afd1 1c3b b724 07bc e85b b4bb 0660 b23b
000000d0: c5d2 083d 076f fe3a 755e 93bc 361e ce3c
000000e0: 8011 003d 042c 853d a1c1 bd3d a1de 4d3c
000000f0: 915d 71bb acf6 963c 441e f73c 6b4d 3e3b
00000100: a2cd ddbc 90f5 2abd 0772 d9bc 0594 ee3a
00000110: a8fc 61bb 97f9 4f3c 8665 d3bc ced1 ac3b
00000120: 920c 82bc 514c ce3c 88a6 2bbd ffa1 c63c
00000130: 9146 1bb9 a36d 39bd 2d08 743d b202 b03d
00000140: a59d ea3b 0dc5 c23c 28dc f33c 35c6 77ba
00000150: 60c5 eabc c0ed ca3c a54f 603c e0c0 14bd
00000160: ff99 853d 0b51 3c3d b419 c0bc 7220 edbb
00000170: 3354 053d 187e ddbc a6be 90bc 61de 55bd
00000180: 3f12 5b3d b998 283d d323 f7bc bb5e 52bc
00000190: 08a7 5b3c f7e3 6f3d 82b2 4ebb 684a 803c
000001a0: b6f2 14bd a656 193d 11b1 a63b 000b beba
000001b0: 7b71 34bd 29f5 c5bd 069d 42bd c871 0cbd
000001c0: 52bd d5bb ccc3 a43b e44e c73c ead7 c9bd
000001d0: 8349 e83b 7351 f83b 7fa3 273d 0e29 28bb
000001e0: 76c9 963c b33a 05bc 321e 8b3c cbec 103d
000001f0: c807 3c3c 576a 45bc a64c 26bd 0efe a5bc
00000200: ff36 c5bc d17f 8639 4881 733c ca03 4d3b
00000210: afec 53bd 43f4 0fbd 74ae 033d 7bf0 34ba
00000220: dbee 42bb 222d cd3b 7d53 963c cfcc 25bd
00000230: 5ddf eebc 8d22 cb3c 6e00 9f3d 1384 09bd
00000240: ef57 1ebd 665d ee3b d6fd ce3c fb6b 823c
00000250: bfbc 413d 13df fabc ea2a 843c 3937 873d
00000260: b2ac cd3c 123d ccba 7497 84bc e494 fb3c
00000270: 1cb8 273d efbd b33c 408d de3c 4097 40bd
00000280: aa4c 53bd 2108 88bb bbda 3ebd de41 353d
00000290: ba8a 1d3d dd70 4fbd 7a12 7d3b 746c 4e3c
000002a0: 9e80 3bbd 56e4 37bd d278 4ebc ae4c 7ebd
000002b0: e5a7 54bd 4699 88bd 7b1f e43c dc71 633c
000002c0: 15c7 7fbb 4f48 1ebd 24ce fcbc ea68 5c3d
000002d0: 2a27 48bd d048 29bc 078f 09bd c9a4 ab3a
000002e0: cdd0 3ebd dd75 fe3c aedf 443b a174 dc3d
000002f0: 20ea 483d 3660 363c c27a 6e3d 0676 02bd
00000300: 1ec5 913c 2a44 a3ba 3ef6 113c 245b da3c
00000310: 02d5 813c da7a 41bd 520d 363d 8588 70bc
00000320: 5345 b93a 1744 dc3b eb97 89bd a0e8 e4bc
00000330: ebfb 47bd 3a9b bbbc f7fb e03c 286b 33bc
00000340: cfa7 04bd 4114 aa3c 8860 f1bc 221f 3ab9
00000350: e989 963c a0a6 e23c 933b 953d c368 06bd
00000360: bc3c ecbc b8db 87bc c28a 51bc 38c6 85bc
00000370: d87a 523d df3c 073d fa1c 00bd f414 9abd
00000380: a0fc 953c c4e7 173c 9811 0d3d 6957 393d
00000390: e7c8 033d dabd 31bb 7083 043d f3e9 6abb
000003a0: 6ecf b3bd 36c3 5c3c 4005 223d 2181 b53d
000003b0: b2e0 323d 4436 553c 8c18 edba ad63 06bd
000003c0: bbb5 a0bc b0c3 8b3b 72d1 0cbd 2eda 393d
000003d0: 042e 413d 23d0 8bbc 12e0 23bd 5c2a 163d
000003e0: c565 e2bc 8a88 8dbd 1de7 d4bc 4780 35bc
000003f0: 4978 3f3d 990e 44bb 3698 d9bc f4dc 89bd

temporal_model.conv_layers.0.0.bias f4 [128]
0.034235045 0.030785771 -0.0150203 -0.03701975 -0.01587315 -0.022048246 -0.031682245 -0.014908355
0.0171736 -0.023698695 0.028401894 0.04338102 0.0438118 -0.036438756 -0.041538816 -0.056825783
0.05381379 -0.06053221 0.051566623 0.03635969 0.009432744 0.011319489 -0.00087930204 0.075194485
-0.011678823 -0.023754328 -0.031417765 0.0057979748 0.0072758878 -0.009583131 -0.064256445 -0.011656602
-0.026503004 -0.05185317 -0.008161757 0.022207387 0.022910085 -0.0049301856 -0.056299105 -0.0018829945
-0.05110934 0.051156662 -0.028050648 0.008617305 -0.056363497 0.0055982433 -0.027860751 -0.040844325
-0.010805971 0.028066803 0.017426526 0.0039889547 0.012310629 -0.045417007 -0.011316003 -0.047568705
0.006301136 0.010249014 -0.0007178987 0.024972282 -0.051358525 -0.029679026 0.02276089 0.0782379
-0.0153431045 0.044758238 0.037933834 -0.04578995 -0.002275711 0.021649295 -0.042300947 -0.025628863
0.0058192858 0.008071529 0.032614235 0.0051827957 -0.012214708 -0.038888272 0.03776074 -0.033727586
0.023265643 -0.050423887 -0.0055039898 0.02019647 -0.01829775 0.026987867 -0.009505475 -0.026492702
-0.038060203 0.016598932 -0.025114859 -0.03276837 0.017371599 -0.045936357 0.02048187 0.02798134
0.002360691 0.041801967 -0.020522427 -0.0011764133 -0.02413333 0.029232532 0.004891495 -0.018561505
0.018898746 -0.036421046 -0.019237319 0.025601111 -0.026928494 -0.0017550068 -0.036624495 0.033533882
-0.010239511 -0.04297458 0.031833906 -0.016827624 -0.010443772 -0.055508304 0.03549004 0.0046715843
-0.05095187 -0.024245787 -0.020792844 -0.027431037 -0.061310846 0.026427837 0.0041832 0.012347232
00000000: 0c3a 0c3d 7132 fc3c b417 76bc 05a2 17bd
00000010: 6908 82bc 869e b4bc 3ec5 01bd 2c42 74bc
00000020: a6af 8c3c c423 c2bc 17ab e83c 4cb0 313d
00000030: 0174 333d ce40 15bd 9b24 2abd 27c2 68bd
00000040: d96b 5c3d 9ff0 77bd 8637 533d e6ed 143d
00000050: cc8b 1a3c 6175 393c f680 66ba 91ff 993d
00000060: 8958 3fbc 7098 c2bc eaaf 00bd f0fc bd3b
00000070: 926a ee3b 9102 1dbc e298 83bd 55fb 3ebc
00000080: d41c d9bc fd63 54bd e4b8 05bc 44ec b53c
00000090: eead bb3c 658d a1bb e499 66bd d0ce f6ba
000000a0: 0758 51bd a689 513d 79ca e5bc 992f 0d3c
000000b0: 69dd 66bd 7871 b73b 3b3c e4bc 614c 27bd
000000c0: 870b 31bc 5aec e53c 13c2 8e3c c7b5 823b
000000d0: 85b2 493c 2f07 3abd c266 39bc 67d7 42bd
000000e0: c379 ce3b 7beb 273c 5e31 3cba ac92 cc3c
000000f0: 515d 52bd 6e21 f3bc 0c75 ba3c 313b a03d
00000100: a561 7bbc 6a54 373d 8260 1b3d 3e8e 3bbd
00000110: 1824 15bb dd59 b13c c243 2dbd 9ff3 d1bc
00000120: b5af be3b 723e 043c 8196 053d 71d4 a93b
00000130: 3320 48bc 4f49 1fbd 01ab 1a3d f025 0abd
00000140: 9797 be3c 4789 4ebd d05a b4bb 1173 a53c
00000150: 2ae5 95bc a915 dd3c dabc 1bbc 3907 d9bc
00000160: 04e5 1bbd 7cfa 873c adbd cdbc 2038 06bd
00000170: e24e 8e3c c327 3cbd 98c9 a73c 2039 e53c
00000180: d3b5 1a3b 8a38 2b3d a61e a8bc e131 9aba
00000190: 43b3 c5bc 1079 ef3c d648 a03b 4c0e 98bc
000001a0: 8bd1 9a3c 3c2e 15bd 9597 9dbc 6cb9 d13c
000001b0: 2599 dcbc 4208 e6ba 9103 16bd d35a 093d
000001c0: 9fc3 27bc 1d06 30bd 4564 023d 16da 89bc
000001d0: 5b1c 2bbc ad5c 63bd 015e 113d 1714 993b
000001e0: e8b2 50bd 1a9f c6bc c155 aabc 0eb7 e0bc
000001f0: 1521 7bbd 317f d83c 3a13 893b 0b4c 4a3c

temporal_model.conv_layers.1.0.weight f4 [128, 128, 3]
-0.00029317968 0.032140207 -0.057225756 0.034456883 -0.028971728 -0.021029538 -0.01698383 0.004341615
0.0035904273 0.02070006 0.051573522 0.018450227 -0.05561316 0.016516684 0.031276487 0.028841602
-0.02136622 -0.0011073792 0.04882104 -0.04038531 -0.008055792 -0.020372462 0.016445028 -0.041023187
0.021649435 0.03377278 -0.011479928 -0.03251875 -0.023138849 0.028327236 0.039478432 -0.052183166
0.00316157 -0.032953348 0.018914374 -0.050548084 -0.02112702 0.028647944 -0.043993577 0.018465044
-0.038440246 0.030412817 0.03966154 0.043442655 0.010945219 -0.019651726 -0.03297021 -0.013062654
-0.04204409 -0.04618526 -0.048766315 -0.03310199 -0.008361679 0.03257747 -0.02264347 0.0029275971
0.037434883 -0.004542598 0.021057986 -0.048040204 0.038296554 0.01313988 -0.022517584 -0.047851823
-0.018945124 -0.04646491 -0.010238178 0.026264725 -0.043442883 0.0028332148 -0.05032727 0.030731967
-0.01862741 -0.028806213 -0.041046634 0.0122832265 -0.024352944 0.04399124 -0.018292071 0.025036927
-0.046371266 0.013082137 -0.001338981 0.011935726 -0.0470169 0.043995555 -0.045361117 0.018288268
-0.022398936 -0.03944036 0.015794335 -0.020302651 -0.0015492421 -0.010389316 -0.030869914 0.008067864
0.044442423 0.03401027 0.040825278 -0.050887268 0.0043190005 -0.04466598 0.035792656 0.009900894
-0.039014816 0.028110953 0.027657224 -0.024889758 0.02262537 -0.037254814 -0.003727296 -0.01587025
0.014820809 -0.062097147 -0.004647337 -0.052225832 0.040845845 -0.019254945 0.03443557 -0.023011373
-0.015461938 -0.016840883 -0.0053120474 -0.047649913 -0.040088926 0.0011791772 0.03116489 0.0061839577
0.029284723 0.015923992 -0.01754095 -0.004985311 -0.016232349 3.6951275e-05 0.023335388 0.0075386595
0.03314032 -0.0052452064 -0.003117297 -0.011559839 0.005553652 0.0048066075 -0.047427498 0.015738418
0.048982225 0.00394845 -0.03354612 -0.022929706 -0.019207772 -0.034826614 -0.04443026 0.044686142
-0.012751727 -0.05555836 -0.00975397 0.025599575 0.010354114 -0.019037895 0.025884403 0.041353256
-0.011391434 -0.0137170525 0.026288427 0.042822905 -0.0143379485 0.03639222 -0.042622223 -0.014111949
0.006145661 -0.032497164 -0.006856209 0.02379865 -0.049731288 -0.017855778 -0.05358402 -0.045323394
0.0057336353 0.0289946 0.0003591595 0.036490966 0.0063986746 0.04322893 -0.016165063 -0.033442266
0.022049086 0.034564927 -0.0027153925 -0.030047322 0.018656716 -0.045230757 0.018656695 -0.036304478
-0.048502732 0.0015211366 -0.0648703 0.008923253 -0.045464844 -0.048718344 -0.0042754696 -0.03753881
0.026335726 -0.04307531 -0.0006005275 0.019964458 -0.046307538 -0.06001642 0.03088344 0.034669474
0.012515796 -0.054755956 -0.02856871 0.036366712 0.044344194 -0.014042103 -0.012592339 0.042384863
-0.00816776 0.005055874 -0.046961438 -0.020170188 0.01303436 -0.0077409516 -9.238135e-05 0.008229594
-0.052136224 0.04922745 0.027492346 -0.023820862 -0.045737002 -0.014602827 -0.04470606 0.040276527
0.014015412 0.0012058099 0.020475045 -0.0063401014 0.031332675 0.026395757 -0.014523952 -0.05680985
-0.04253651 -0.03208552 -0.013634262 0.043526214 -0.030655092 0.032883126 -0.049859814 -0.021976745
0.066004336 -0.05252981 0.018971207 -0.048171844 0.0448273 -0.004138204 0.029880848 0.037712444
00000000: e9b5 99b9 73a5 033d 8e65 6abd a922 0d3d
00000010: 1e56 edbc 2346 acbc ac21 8bbc 1b44 8e3b
00000020: 604d 6b3b 2c93 a93c c23e 533d ee24 973c
00000030: a0ca 63bd ff4d 873c c61b 003d 3945 ec3c
00000040: 3608 afbc 7b25 91ba 92f8 473d 116b 25bd
00000050: 71fc 03bc 26e4 a6bc b9b7 863c ee07 28bd
00000060: 285a b13c 5455 0a3d 4f16 3cbc 6132 05bd
00000070: af8d bdbc 850e e83c 23b4 213d 04be 55bd
00000080: 5832 4f3b 17fa 06bd 51f2 9a3c 820b 4fbd
00000090: 9212 adbc 18af ea3c 9c32 34bd 0144 973c
000000a0: 8573 1dbd 4d24 f93c 2474 223d edf0 313d
000000b0: 9353 333c a8fc a0bc c50b 07bd be04 56bc
000000c0: 6c36 2cbd c12c 3dbd 30bf 47bd f495 07bd
000000d0: 6cff 08bc f46f 053d cc7e b9bc eedc 3f3b
000000e0: 5255 193d 13da 94bb cc81 ac3c cec5 44bd
000000f0: d9dc 1c3d a748 573c cc76 b8bc 4600 44bd
00000100: ce32 9bbc fd51 3ebd 08be 27bc 1f29 d73c
00000110: 2af1 31bd 75ad 393b f823 4ebd 9bc1 fb3c
00000120: 8398 98bc 02fb ebbc 8420 28bd 963f 493c
00000130: d37f c7bc 2930 343d 41d9 95bc 3e1a cd3c
00000140: ccef 3dbd 7656 563c bf80 afba 108e 433c
00000150: cb94 40bd af34 343d 94cc 39bd 47d1 953c
00000160: f97d b7bc 378c 21bd 1f63 813c bf51 a6bc
00000170: f00f cbba f337 2abc e7e2 fcbc 132f 043c
00000180: 4209 363d 5a4e 0b3d 6838 273d 2b6f 50bd
00000190: 6786 8d3b adf3 36bd 529b 123d 5c37 223c
000001a0: 00ce 1fbd f148 e63c 6791 e23c 9be5 cbbc
000001b0: d758 b93c 8198 18bd a645 74bb 5402 82bc
000001c0: fad2 723c 9459 7ebd b048 98bb c1ea 55bd
000001d0: f94d 273d 8cbc 9dbc 500c 0d3d 5982 bcbc
000001e0: 1254 7dbc e4f5 89bc af10 aebb 8e2c 43bd
000001f0: 4934 24bd 9f8e 9a3a 834d ff3c cca2 ca3b
00000200: 84e6 ef3c 0873 823c 0ab2 8fbc d25b a3bb
00000210: b4f9 84bc 21fc 1a38 db29 bf3c dc06 f73b
00000220: 25be 073d fbdf abbb 914b 4cbb 7b65 3dbc
00000230: 69fb b53b bf80 9d3b 5643 42bd dbed 803c
00000240: 96a1 483d 0062 813b a867 09bd 14d7 bbbc
00000250: 9e59 9dbc 5aa6 0ebd 81fc 35bd d108 373d
00000260: 9fec 50bc 2a91 63bd 1ecf 1fbc 33b6 d13c
00000270: 4da4 293c 5cf5 9bbc 870b d43c 0862 293d
00000280: 23a3 3abc 7dbd 60bc d45a d73c 1267 2f3d
00000290: b7e9 6abc 0210 153d a494 2ebd ce35 67bc
000002a0: 8b61 c93b bf1b 05bd 0daa e0bb 63f5 c23c
000002b0: 09b3 4bbd 4846 92bc eb7a 5bbd 06a5 39bd
000002c0: 38e1 bb3b 1586 ed3c 924d bc39 8d77 153d
000002d0: f9ab d13b d210 313d 986c 84bc c2fa 08bd
000002e0: 49a0 b43c f493 0d3d baf4 31bb cd25 f6bc
000002f0: f8d5 983c e343 39bd edd5 983c 01b4 14bd
00000300: cdaa 46bd e060 c73a b8da 84bd d632 123c
00000310: 5839 3abd e38c 47bd 3d19 8cbb 4cc2 19bd
00000320: 05be d73c bc6f 30bd b86c 1dba 818c a33c
00000330: f9ac 3dbd c7d3 75bd 45ff fc3c 9401 0e3d
00000340: 0e0f 4d3c c847 60bd ed08 eabc 43f5 143d
00000350: 42a2 353d d910 66bc 1950 4ebc c09b 2d3d
00000360: 12d2 05bc bfab a53b a35a 40bd f33b a5bc
00000370: 118e 553c cfa7 fdbb dcbc c1b8 6bd5 063c
00000380: cb8c 55bd b9a2 493d a137 e13c f823 c3bc
00000390: b956 3bbd b240 6fbc b41d 37bd 00f9 243d
000003a0: e6a0 653c 440c 9e3a 48bb a73c a0c0 cfbb
000003b0: b156 003d ea3b d83c dff5 6dbc 72b1 68bd
000003c0: c33a 2ebd 1b6c 03bd 3d62 5fbc 8b48 323d
000003d0: 6320 fbbc 75b0 063d ce39 4cbd 9308 b4bc
000003e0: 482d 873d 8029 57bd 8169 9b3c d74f 45bd
000003f0: d59c 373d c599 87bb aec8 f43c 5d78 1a3d

temporal_model.conv_layers.1.0.bias f4 [128]
-0.05526125 -0.02643628 -0.050396323 -0.033669468 -0.0049886927 0.04147702 0.008811195 0.0060817767
-0.01231204 0.017256815 -0.016691986 0.035060775 0.079617 0.023345605 -0.054476764 -0.068396404
-0.01296532 0.025181778 0.03572402 -0.011567302 0.060631905 0.013168676 0.016520048 -0.015746245
0.014454463 0.010461153 0.019196102 -0.0045244093 -0.035126906 -0.017980915 0.055225104 0.037007153
0.05157775 -0.0021226432 0.0001935824 -0.023663059 0.037617855 0.018658457 0.059851076 -0.0698716
-0.015889918 -0.065094866 0.011508304 0.039305337 0.054390952 0.063174754 0.0806051 -0.05538042
0.035573907 -0.008356498 0.014030762 -0.02026736 0.006959975 0.01297346 -0.02970576 -0.029621327
-0.06624563 0.00415229 -0.051394824 0.00024843638 0.031195663 -0.04312996 0.02482933 0.026723966
0.03981605 0.05292242 0.0046493215 0.013895413 0.004698362 -0.0085493 -0.032207314 0.015531404
-0.036467854 -0.0011757106 0.0013842179 0.032535173 0.04734808 0.037550893 0.041219305 -0.029507821
0.05862577 0.060191307 -0.0018838538 0.02998929 0.051302344 -0.051503647 -0.0077611534 -0.021842953
-0.019587867 -0.023161998 0.004789172 -0.02530141 -0.028792772 -0.0018331353 -0.02286114 0.018681835
-0.03656927 0.050691348 -0.002986096 -0.09588578 -0.039985485 0.03648585 0.015913751 -0.04329439
0.052225437 -0.046036255 -0.010491231 -0.021092879 0.023312297 0.029484864 0.020136878 0.024771743
-0.020390665 -0.06295632 -0.02360904 -0.026086386 0.018597059 -0.04900223 0.023337003 -0.028444275
0.011822791 -0.011137344 -0.02916171 0.055890244 -0.047716208 0.026542602 -0.008320358 0.039058574
00000000: 9f59 62bd e690 d8bc 606c 4ebd ffe8 09bd
00000010: 3078 a3bb cfe3 293d d55c 103c a449 c73b
00000020: 70b8 49bc 2a5e 8d3c a2bd 88bc e39b 0f3d
00000030: 3d0e a33d 483f bf3c 0723 5fbd 6a13 8cbd
00000040: 7e6c 54bc 044a ce3c 5a53 123d c884 3dbc
00000050: 2959 783d 6ec1 573c 0d55 873c 45fe 80bc
00000060: 69d2 6c3c 4265 2b3c 2541 9d3c 7f41 94bb
00000070: 3be1 0fbd b64c 93bc b833 623d d094 173d
00000080: 3143 533d 0b1c 0bbb 61fc 4a39 08d9 c1bc
00000090: 2e15 1a3d 9fd9 983c 6726 753d d718 8fbd
000000a0: 932b 82bc 7550 85bd 538d 3c3c a2fe 203d
000000b0: 0cc9 5e3d c461 813d 4914 a53d 94d6 62bd
000000c0: f2b5 113d b1e9 08bc 48e1 653c bc07 a6bc
000000d0: 8110 e43b a38e 543c 7e59 f3bc 6da8 f2bc
000000e0: caab 87bd ef0f 883b 6183 52bd 9140 8239
000000f0: 0c8e ff3c 0aa9 30bd e166 cb3c 38ec da3c
00000100: 2816 233d 2ec5 583d 5659 983b 96a9 633c
00000110: b8f4 993b 5d12 0cbc d1eb 03bd 6e77 7e3c
00000120: 515f 15bd 4d1a 9aba a56e b53a 9a43 053d
00000130: 0ff0 413d f7ce 193d 93d5 283d 63ba f1bc
00000140: 9321 703d 298b 763d a5eb f6ba 19ac f53c
00000150: 6822 523d 7df5 52bd 4651 febb feef b2bc
00000160: bc76 a0bc 3bbe bdbc 7dee 9c3b e744 cfbc
00000170: d2de ebbc d045 f0ba 4947 bbbc a60a 993c
00000180: a9c9 15bd bba1 4f3d 61b2 43bb c45f c4bd
00000190: d2c7 23bd 3072 153d 8e5d 823c 7555 31bd
000001a0: 57ea 553d 8390 3cbd 6ae3 2bbc f9ca acbc
000001b0: 6ef9 be3c 3e8a f13c 18f6 a43c 1cee ca3c
000001c0: 530a a7bc 3eef 80bd bf67 c1bc 1eb3 d5bc
000001d0: dc58 983c 90b6 48bd 3e2d bf3c f803 e9bc
000001e0: 61b4 413c 6879 36bc 8ae4 eebc 2bed 643d
000001f0: 1272 43bd df6f d93c 1c52 08bc e2fb 1f3d

temporal_model.conv_layers.2.0.weight f4 [128, 128, 3]
0.0040397327 0.049737055 0.035284787 0.044033475 0.008554805 -0.08814528 -0.010728679 0.0331576
0.006773548 0.009650331 -0.067304865 -0.026100969 -0.024015257 -0.036887333 0.07538927 0.016070316
-0.020386327 0.047908872 -0.020689929 -0.020198546 0.07541669 0.03779417 0.008544046 -0.043217152
0.07949851 0.09943242 -0.00065216847 0.026329724 0.045499187 0.043042995 0.035298318 0.020006202
0.01801823 -0.045916196 0.0195379 0.0042956225 0.030544793 0.019381728 -0.023046074 0.04737955
0.009494542 -0.014103481 -0.005701205 0.049455173 -0.00069676334 -0.031929895 0.0042958814 -0.042134594
0.029460048 -0.039898418 0.020078856 0.03733777 -0.024507679 -0.062450156 0.004581161 0.019034091
-0.046762414 -0.03333876 0.050421316 -0.12573946 0.031297952 -0.034808755 0.05119812 0.05149932
-0.0025262232 -0.01263718 -0.018855287 -0.021002924 -0.037095543 0.011908917 0.088871084 0.012831575
0.045146078 0.020253235 -0.03140897 -0.011030609 0.022635011 0.010054245 -0.13660516 -0.11576495
-0.14255765 -0.03466188 -0.04826679 0.080653355 -0.011934719 0.032986484 -0.06897028 -0.048855793
0.04570111 -0.047400862 0.05125106 -0.003935145 -0.008775828 0.022072645 -0.05884552 0.035829447
0.0013369292 -0.0120847635 0.04357852 -0.018314244 -0.0118120285 -0.009216177 0.055369243 -0.051605795
-0.020677079 0.036541637 0.02830927 -0.14521894 0.0076898444 0.0435949 -0.013130295 0.02745513
0.03643958 0.04098223 -0.038845114 -0.027641643 -0.051738046 0.024489785 0.068359576 -0.07168576
0.023375127 0.043503013 -0.02371754 -0.02605568 -0.0499434 -0.017218651 0.04647252 -0.03598379
-0.057279307 0.059122488 0.0419437 0.04694594 0.01446528 0.029571062 -0.019356878 0.029014848
0.01441116 0.010612342 0.019101035 -0.027055003 0.06440565 0.060975086 0.035674207 -0.036669187
0.009600976 -0.026972773 -0.07303492 0.0142263295 0.037419338 -0.12508166 0.03540278 -0.046234556
-0.10002427 0.055698223 0.04141534 -0.086961456 0.021618642 0.033585876 0.059496034 0.007234618
-0.00822689 -0.06470309 0.03663725 0.024714485 -0.12698965 -0.04216632 0.017813459 0.0024370123
0.04229505 -0.0043454613 0.030629847 -0.024494302 -0.062676124 -0.0436458 -0.069477014 0.051037364
-0.030742306 0.011234623 0.005545147 -0.0015242769 -0.011541599 -0.021938166 -0.068852164 -0.02996788
-0.028052496 -0.043380465 0.01057634 0.027248312 -0.09672391 0.058779065 -0.008289826 0.05949288
0.0066194083 -0.0005811586 0.009440337 -0.029598381 -0.03693036 0.045983467 0.03414478 -0.030444685
0.07968138 -0.049553227 0.034719706 -0.06828171 -0.03300332 0.016500343 -0.1029806 0.008731094
0.031809807 -0.102886215 -0.034526605 0.00239382 0.057204794 -0.018697063 -0.0151815275 -0.10923593
-0.019179532 -0.031030936 -0.030216392 0.053135477 -0.0049636257 -0.0339255 -0.06402834 -0.03587231
0.037590463 -0.0017479223 -0.068814196 0.082403995 0.039852444 0.035008457 -0.084507756 0.058615353
-0.07805772 0.0076913973 -0.03517605 -0.00784512 0.103895344 0.002275713 0.038520128 -0.10930649
0.015421174 -0.02459499 0.006903962 0.075199805 -0.006592029 0.00308788 -0.010129729 0.03451519
-0.11699637 -0.0022493498 -0.05176527 0.072142 0.051133506 -0.0073611266 0.07439888 0.042191762
00000000: bc5f 843b 15b9 4b3d c886 103d 725c 343d
00000010: 7429 0c3c 8385 b4bd 57c7 2fbc 43d0 073d
00000020: a4f4 dd3b 6c1c 1e3c 22d7 89bd b3d1 d5bc
00000030: a5bb c4bc 2c17 17bd b165 9a3d e5a5 833c
00000040: 3a01 a7bc 183c 443d ed7d a9bc 6c77 a5bc
00000050: 1174 9a3d 0fce 1a3d 54fc 0b3c 7804 31bd
00000060: 1dd0 a23d 3aa3 cb3d 49f6 2aba 6fb1 d73c
00000070: 5b5d 3a3d da4d 303d f894 103d 0ce4 a33c
00000080: f89a 933c 9f12 3cbd f20d a03c 4bc2 8c3b
00000090: 1339 fa3c 6ec6 9e3c 1fcb bcbc 0f11 423d
000000a0: ff8e 1b3c 4912 67bc 2dd1 babb 8291 4a3d
000000b0: ffa6 36ba ecc8 02bd 77c4 8c3b 5395 2cbd
000000c0: 3356 f13c 866c 23bd 6a7c a43c 7def 183d
000000d0: 54c4 c8bc bccb 7fbd 901d 963b 62ed 9b3c
000000e0: f289 3fbd 398e 08bd 9586 4e3d d8c1 00be
000000f0: 4832 003d a093 0ebd 1fb5 513d f3f0 523d
00000100: fe8e 25bb 2d0c 4fbc 6776 9abc 530e acbc
00000110: 7ff1 17bd 9e1d 433c 0b02 b63d 873b 523c
00000120: 18eb 383d 1dea a53c b1a6 00bd bab9 34bc
00000130: 0f6d b93c 8fba 243c 39e2 0bbe 2d16 edbd
00000140: a2fa 11be 9ef9 0dbd 66b3 45bd 962d a53d
00000150: d789 43bc d61c 073d 4a40 8dbd 031d 48bd
00000160: 1631 3b3d 6827 42bd a2ec 513d 64f2 80bb
00000170: 7ec8 0fbc b1d1 b43c 0008 71bd e6c1 123d
00000180: e63b af3a 2cff 45bc 647f 323d c107 96bc
00000190: 3d87 41bc 73ff 16bc dcca 623d 9960 53bd
000001a0: fa62 a9bc afac 153d d8e8 e73c 46b4 14be
000001b0: 17fb fb3b 9190 323d 7320 57bc 95e9 e03c
000001c0: ab41 153d fcdc 273d 0e1c 1fbd ba70 e2bc
000001d0: 46eb 53bd cd9e c83c 1b00 8c3d fccf 92bd
000001e0: 327d bf3c 3730 323d 494b c2bc b972 d5bc
000001f0: 7391 4cbd 210e 8dbc f859 3e3d bd63 13bd
00000200: b59d 6abd 6c2a 723d 28cd 2b3d 634a 403d
00000210: c8ff 6c3c 033f f23c 5192 9ebc 8cb0 ed3c
00000220: c91c 6c3c 63df 2d3c c679 9c3c 74a2 ddbc
00000230: 1ce7 833d 03c1 793d 1e1f 123d 6e32 16bd
00000240: 694d 1d3c 01f6 dcbc 5593 95bd 8d15 693c
00000250: 0545 193d 6815 00be 8102 113d 7260 3dbd
00000260: 86d9 ccbd d223 643d 22a3 293d d918 b2bd
00000270: 9419 b13c 5891 093d 1db2 733d 6010 ed3b
00000280: 14ca 06bc 0e83 84bd f110 163d 0876 ca3c
00000290: 9309 02be 97b6 2cbd 88ed 913c 48b6 1f3b
000002a0: 933d 2d3d 5f64 8ebb 72eb fa3c 46a8 c8bc
000002b0: 575c 80bd f0c5 32bd f749 8ebd 8e0c 513d
000002c0: 4ad7 fbbc 6d11 383c 11b4 b53b 3fca c7ba
000002d0: fa18 3dbc abb7 b3bc 5d02 8dbd 337f f5bc
000002e0: 59ce e5bc b7af 31bd 6348 2d3c da37 df3c
000002f0: 2f17 c6bd 51c2 703d 0dd2 07bc ceae 733d
00000300: 9fe7 d83b e558 18ba a5ab 1a3c 4e78 f2bc
00000310: 4a44 17bd 2959 3c3d 66db 0b3d 2267 f9bc
00000320: fe2f a33d 53f8 4abd 4036 0e3d 48d7 8bbd
00000330: 7d2e 07bd ba2b 873c 7ee7 d2bd dd0c 0f3c
00000340: 004b 023d 02b6 d2bd c56b 0dbd a3e1 1c3b
00000350: 934f 6a3d 952a 99bc f1bb 78bc 16b7 dfbd
00000360: 651e 9dbc 9734 febc 5e88 f7bc 96a4 593d
00000370: e9a5 a2bb 77f5 0abd 4a21 83bd d8ee 12bd
00000380: 75f8 193d 8a1a e5ba 75ee 8cbd 6dc3 a83d
00000390: 513c 233d 0765 0f3d 6712 adbd a716 703d
000003a0: badc 9fbd 1e08 fc3b c314 10bd d188 00bc
000003b0: 15c7 d43d 2124 153b 48c7 1d3d 15dc dfbd
000003c0: 17a9 7c3c 6f7b c9bc a23a e23b 5b02 9a3d
000003d0: f201 d8bb 085e 4a3b 2af7 25bc cd5f 0d3d
000003e0: cb9b efbd d469 13bb d207 54bd 2fbf 933d
000003f0: 5e71 513d 9b35 f1bb 715e 983d 45d1 2c3d

temporal_model.conv_layers.2.0.bias f4 [128]
0.071291365 -0.066581294 0.06226452 -0.019518431 0.012542801 0.00084282144 0.063553825 0.016305374
0.051097378 -0.00045976051 -0.022095997 0.055266246 0.011881291 0.07609764 -0.02569447 0.047259156
-0.014186643 0.026596352 -0.06984276 -0.02381981 0.04584854 0.0040305955 -0.023923729 -0.02718791
0.024679145 -0.00488719 -0.02785649 0.07303194 -0.07873624 -0.06650189 0.0066487733 -0.013388827
-0.009167132 0.03411448 -0.016522415 0.0503011 0.020033471 0.10926344 -0.035983656 0.011830893
-0.005087723 -0.02143998 0.07225532 -0.028195962 -0.011635096 0.035081062 0.058332153 0.016365178
-0.019859131 -0.034459148 0.00484108 -0.08871334 -0.0441776 0.017518226 -0.05146661 0.015196091
0.006109462 -0.01531429 0.03976729 0.049962852 0.07250674 -0.01353566 0.0108005395 0.07603869
-0.013238219 0.06785266 0.05912884 0.06422012 0.067185774 0.014557726 0.020146457 -0.0018111372
-0.015673658 -0.059919726 0.023992263 -0.022860257 0.09844935 0.07989352 -0.0490012 0.05326545
0.07636406 0.015625486 0.08534733 0.011908403 -0.051024772 0.013790994 0.061128926 0.046814103
0.046741396 0.0904845 0.023866637 -1.7131228e-05 0.0124198785 -0.023667779 -0.0020628688 0.043816492
-0.004923582 0.052491497 0.07706891 0.011746909 0.059721023 -0.06315633 0.05154449 -0.058539417
-0.016935853 -0.05558726 -0.018891428 -0.02729329 -0.03366043 0.066329956 -0.01930321 -0.07000974
-0.046512045 0.015313031 -0.029363545 -0.033882163 -0.0513695 0.08530408 0.09770359 0.0687449
-0.051275782 0.04763113 -0.049010735 -0.0024491823 0.052127846 0.0026587637 0.0054408265 -0.01710889
00000000: 3501 923d c65b 88bd 1509 7f3d 1ee5 9fbc
00000010: 5280 4d3c caf0 5c3a 8228 823d d992 853c
00000020: 7c4b 513d 030c f1b9 aa02 b5bc dc5e 623d
00000030: bfa9 423c 14d9 9b3d 367d d2bc d192 413d
00000040: 186f 68bc 98e0 d93c b909 8fbd c321 c3bc
00000050: aecb 3b3d 1613 843b b2fb c3bc 2eb9 debc
00000060: eb2b ca3c b924 a0bb 4b33 e4bc c591 953d
00000070: 7740 a1bd 2532 88bd f4dd d93b d05c 5bbc
00000080: bd31 16bc a0bb 0b3d 045a 87bc 8708 4e3d
00000090: 3c1d a43c 83c5 df3d 9963 13bd 5dd6 413c
000000a0: eab6 a6bb e6a2 afbc 99fa 933d 38fb e6bc
000000b0: 21a1 3ebc 29b1 0f3d b2ed 6e3d 4410 863c
000000c0: 9eaf a2bc 0925 0dbd eca1 9e3b 57af b5bd
000000d0: 92f3 34bd 6282 8f3c a7ce 52bd 06f9 783c
000000e0: e231 c83b cae8 7abc 07e3 223d d9a5 4c3d
000000f0: 6a7e 943d acc4 5dbc bff4 303c 2cba 9b3d
00000100: 1de5 58bc 56f6 8a3d 1531 723d d785 833d
00000110: b298 893d 8783 6e3c 2f0a a53c ae63 edba
00000120: 0b66 80bc 636e 75bd 6c8b c43c 6f45 bbbc
00000130: d09f c93d 379f a33d 7bb5 48bd df2c 5a3d
00000140: c364 9c3d 0501 803c 95ca ae3d 761b 433c
00000150: 5aff 50bd 9ff3 613c 5362 7a3d 25c0 3f3d
00000160: e873 3f3d f04f b93d f783 c33c 08b5 8fb7
00000170: bf7c 4b3c eee2 c1bc 3231 07bb ec78 333d
00000180: 0056 a1bb 5301 573d 4ed6 9d3d 1b76 403c
00000190: 089e 743d 1b58 81bd 5120 533d 07c7 6fbd
000001a0: 0fbd 8abc 77af 63bd 32c2 9abc 2d96 dfbc
000001b0: 85df 09bd 00d8 873d c421 9ebc 4461 8fbd
000001c0: 6a83 3ebd 82e3 7a3c d18b f0bc 06c8 0abd
000001d0: d368 52bd e8b3 ae3d d218 c83d 20ca 8c3d
000001e0: 8e06 52bd dc18 433d 7bbf 48bd 7682 20bb
000001f0: 0284 553d a73e 2e3b f648 b23b f127 8cbc

temporal_model.conv_layers.3.0.weight f4 [128, 128, 3]
0.013573101 0.026615841 0.043815665 -0.020610163 0.032235943 -0.03953823 0.05044575 -0.046304595
0.02300065 -0.042851727 -0.00601321 -0.04256238 -0.008965152 0.0064724484 -0.005090737 -0.03774707
-0.0102429725 -0.055539843 -0.0019666133 -0.009370622 0.042080503 -0.1541502 -0.031236084 -0.04804587
0.03624484 0.008031512 -0.06611014 0.008897309 0.062833056 -0.0008944654 0.040332682 0.022697927
0.08310498 0.025633888 0.015835505 0.043656524 0.00916787 -0.03751111 -0.07529426 0.03190898
-0.031599358 0.025232075 -0.0009968992 -0.021664485 -0.056974728 0.059414506 -0.012921771 -0.038067695
0.0060241465 0.05139279 -0.03486585 0.036303885 -0.0037435163 -0.039225645 -0.032171138 -0.044624817
-0.10055673 0.018089464 0.05821873 -0.026751023 -0.024582285 -0.037050053 0.050489232 -0.00020037287
0.04751271 -0.013555215 0.037512798 -0.03880175 -0.11281868 0.025943257 -0.048772648 0.008697565
0.026815407 -0.016327435 0.075489014 0.023197213 0.026003283 -0.027040659 0.06814885 -0.033228315
0.02729366 -0.017252801 -0.049132686 0.06715694 0.03646274 0.013939962 -0.056138817 0.04686665
0.0312784 0.04886775 0.04259949 -0.020678578 -0.010795872 0.047434673 0.062226787 0.012761821
0.022893805 0.042367984 0.015878284 -0.019699909 -0.006279068 0.03711801 -0.014444937 -0.0058254614
0.07814884 0.05059592 0.004843779 -0.04999597 -0.08969261 -0.08209545 -0.11244877 -0.018078871
0.048999146 0.07813947 0.013435483 0.05116571 -0.002518114 -0.03342343 0.052891377 -0.05022194
-0.019496026 0.05460914 0.05884357 0.0014340333 0.040400323 -0.0088675255 -0.09476732 -0.099081635
0.0035165374 -0.046273492 0.00375939 -0.055155404 0.03244781 0.008444676 0.01274493 -0.017996348
-0.030380102 -0.00018465622 0.032310974 0.029753527 -0.0109775765 0.051494855 0.030717414 -0.020314174
0.0018712737 0.0027651927 -0.092484765 -0.0031618618 -0.054467972 -0.029803505 0.017544985 -0.008212442
-0.08901194 -0.009623845 -0.055257183 -0.022512397 -0.009703848 0.02236323 -0.06428547 -0.033821948
0.011328286 0.010009197 -0.014363536 -0.02176569 -0.037347816 0.054449625 0.018314295 0.035400894
-0.032151863 0.053608328 -0.022267232 -0.025446994 0.025707647 -0.04193212 0.006396361 -0.005806502
0.068198666 0.036939263 0.05386604 0.030109806 0.04707666 0.017110096 0.05588328 0.06134064
-0.025833761 -0.057669573 0.03564768 0.024349462 0.023195514 0.029874464 0.034603577 -0.0052705896
-0.052522846 0.016782532 0.09369838 0.023286367 0.018989826 0.10509311 0.025595605 0.05429119
0.028480636 0.03911547 -0.038343582 -0.04165262 0.071962625 0.032942824 0.019125488 0.008502623
0.050344795 0.0734846 -0.0027862475 0.06711551 -0.053120464 0.034525894 -0.038552634 0.012313091
0.036346093 0.06797579 0.06337829 -0.16104057 -0.072310925 -0.08380192 -0.0016295835 -0.02954727
-0.03821785 0.050836734 0.023127176 -0.07935366 0.020280438 -0.026482785 0.053089727 0.04612146
-0.029127683 0.042129263 0.054433696 -0.04875265 0.04469628 -0.03848073 0.0025302034 0.07995488
-0.121069156 -0.026818465 -0.05929886 -0.04158553 0.06415857 -0.04108593 0.00900252 0.026038181
-0.026357744 0.01635454 0.0037144877 0.009555465 -0.056201026 0.08393377 -0.0008543437 -0.055892088
00000000: b661 5e3c 7709 da3c 0e78 333d a5d6 a8bc
00000010: d609 043d d7f2 21bd 34a0 4e3d e3a9 3dbd
00000020: dc6b bc3c 4b85 2fbd 760a c5bb e455 2ebd
00000030: 93e2 12bc d516 d43b 32d0 a6bb ac9c 1abd
00000040: 24d2 27bc bf7d 63bd 4ce2 00bb 3d87 19bc
00000050: 9b5c 2c3d 8dd9 1dbe d1e2 ffbc bfcb 44bd
00000060: 7875 143d 9a96 033c c164 87bd 05c6 113c
00000070: 9eae 803d 8f7a 6aba e233 253d 01f1 b93c
00000080: f232 aa3d 29fe d13c 76b9 813c 2fd1 323d
00000090: d534 163c 40a5 19bd e133 9abd feb2 023d
000000a0: 546e 01bd 7fb3 ce3c 63aa 82ba b879 b1bc
000000b0: 555e 69bd a05c 733d d6b5 53bc dfec 1bbd
000000c0: 3466 c53b 3f81 523d 7ecf 0ebd 62b3 143d
000000d0: c855 75bb 12ab 20bd e2c5 03bd 83c8 36bd
000000e0: b0f0 cdbd 5b30 943c c376 6e3d f624 dbbc
000000f0: ca60 c9bc ccc1 17bd cccd 4e3d 2f1b 52b9
00000100: b09c 423d b116 5ebc 05a7 193d 95ee 1ebd
00000110: 7b0d e7bd f486 d43c d4c5 47bd 3b80 0e3c
00000120: fcab db3c 1dc1 85bc fc99 9a3d 1508 be3c
00000130: d604 d53c 5f84 ddbc a091 8b3d 6a1a 08bd
00000140: f496 df3c bf55 8dbc 5b3f 49bd 9489 893d
00000150: f459 153d 7064 643c d1f1 65bd 3ff7 3f3d
00000160: c81d 003d 8d29 483d ce7c 2e3d 1f66 a9bc
00000170: 2be1 30bc dc4a 423d 84e1 7e3d f516 513c
00000180: ca8b bb3c 0d8a 2d3d 2d13 823c b461 a1bc
00000190: a4c0 cdbb 0e09 183d 75aa 6cbc 83e3 bebb
000001a0: 800c a03d ab3d 4f3d 90b8 9e3b 93c8 4cbd
000001b0: c2b0 b7bd a921 a8bd 8a4b e6bd 241a 94bc
000001c0: 54b3 483d 9607 a03d 8020 5c3c 2393 513d
000001d0: f106 25bb 02e7 08bd a1a4 583d 85b5 4dbd
000001e0: 21b6 9fbc d5ad 5f3d f505 713d 2cf6 bb3a
000001f0: cf7a 253d 1949 11bc 5e15 c2bd 50eb cabd
00000200: b575 663b 4689 3dbd 1960 763b a2ea 61bd
00000210: ffe7 043d 8a5b 0a3c 1cd0 503c 146d 93bc
00000220: b1df f8bc 47a0 41b9 8358 043d abbd f33c
00000230: 4bdb 33bc 45ec 523d 16a3 fb3c e969 a6bc
00000240: 8745 f53a 3c38 353b a768 bdbd 3d37 4fbb
00000250: cf19 5fbd 7b26 f4bc 80ba 8f3c 7a8d 06bc
00000260: e44b b6bd 55ad 1dbc 5b55 62bd eb6b b8bc
00000270: e3fc 1ebc 1833 b73c 1aa8 83bd e288 0abd
00000280: 469a 393c 9dfd 233c 0955 6bbc f64d b2bc
00000290: 06fa 18bd 9206 5f3d dc07 963c 8700 113d
000002a0: acb1 03bd 6894 5b3d c569 b6bc 3776 d0bc
000002b0: d898 d23c 04c1 2bbd 9198 d13b 7844 bebb
000002c0: beab 8b3d a04d 173d a3a2 5c3d d7a8 f63c
000002d0: 75d3 403d 792a 8c3c dee5 643d 5340 7b3d
000002e0: 53a1 d3bc ee36 6cbd 4d03 123d 8678 c73c
000002f0: 8504 be3c 4bbb f43c 7bbc 0d3d e9b4 acbb
00000300: 3222 57bd 857b 893c f0e4 bf3d 0dc3 be3c
00000310: 8d90 9b3c 0e3b d73d e0ad d13c 7060 5e3d
00000320: 3950 e93c 8b37 203d 290e 1dbd f09b 2abd
00000330: 2461 933d 0eef 063d 0ead 9c3c 964e 0b3c
00000340: 5836 4e3d 187f 963d 7a99 36bb db73 893d
00000350: d894 59bd 066b 0d3d 5ee9 1dbd d9bc 493c
00000360: a4df 143d e436 8b3d 7acc 813d d2e7 24be
00000370: c017 94bd 57a0 abbd c097 d5ba 1e0d f2bc
00000380: 528a 1cbd 2e3a 503d 3475 bd3c 2c84 a2bd
00000390: 2923 a63c 6df2 d8bc 9d74 593d dbe9 3c3d
000003a0: 2e9d eebc bc8f 2c3d def5 5e3d dcb0 47bd
000003b0: 7213 373d f89d 1dbd c5d1 253b 62bf a33d
000003c0: 1bf3 f7bd 66b2 dbbc 5de3 72bd 9755 2abd
000003d0: 9165 833d b849 28bd 4e7f 133c 064e d53c
000003e0: 32ec d7bc f5f9 853c c36e 733b 868e 1c3c
000003f0: 0c33 66bd 78e5 ab3d 09f6 5fba 1aef 64bd

temporal_model.conv_layers.3.0.bias f4 [128]
0.10280165 0.063923135 0.014262605 -0.022516606 0.016956998 0.08233344 0.036982004 0.024139453
0.016195983 0.013202995 -0.052999035 0.023606336 -0.0026421633 0.05451634 -0.0713725 -0.030250963
0.07487399 0.020593379 -0.023324462 0.052490868 -0.030646605 -0.01403918 0.084631644 0.016435536
-0.0035959058 0.021683453 0.013898763 -0.024507318 0.0518759 0.088711806 -0.05281056 0.10286273
0.0074213087 0.00402984 0.040960573 0.021581974 0.018700346 0.07080759 -0.033146385 0.036250994
-0.058733303 0.081844926 0.01245232 -0.058887504 0.026434643 -0.0026240654 0.030494425 -0.03187635
0.058236882 -0.009959131 -0.049933426 0.027586866 -0.012880315 -0.007794073 0.018745879 0.027739225
0.01825615 0.019736584 0.00364713 0.059644036 0.013175255 0.020190312 -0.0040400643 0.00712688
-0.018813018 -0.04700495 0.027222324 -0.0111801475 0.057078745 0.054685775 0.016466793 0.03635507
0.0884626 -0.047543827 -0.033947892 0.031134125 0.020818785 -0.02608307 -0.013471433 -0.056752484
0.0025654805 -0.021623164 0.020534094 0.10456902 0.051561084 0.002001469 0.07464345 0.04879634
-0.04119519 -0.05467211 0.04562737 0.11264756 0.022629958 0.085192285 0.10254106 -0.0069923117
0.031298082 0.09679874 0.045886483 0.034526635 0.08270865 0.03693879 -0.050848857 -0.043056756
0.014183285 0.011202325 0.021063367 0.0070812833 0.08441696 0.013269463 0.019989101 0.030938063
0.030415803 0.023469651 0.053775586 0.014140184 0.025936348 0.03044558 0.08148435 0.06275498
-0.005670196 -0.012747905 0.045250446 -0.012942534 -0.017841168 -0.0023844675 0.04986872 -0.01707063
00000000: ac89 d23d 22ea 823d b4ad 693c bf74 b8bc
00000010: 67e9 8a3c 6f9e a83d 717a 173d 1ac0 c53c
00000020: 70ad 843c 6051 583c 8415 59bd 1362 c13c
00000030: 2528 2dbb 874c 5f3d bf2b 92bd ded0 f7bc
00000040: 8957 993d 72b3 a83c f112 bfbc aa00 573d
00000050: 970e fbbc 9704 66bc 5b53 ad3d d1a3 863c
00000060: 4aa9 6bbb 7fa1 b13c a3b7 633c 92c3 c8bc
00000070: d37b 543d 89ae b53d e34f 58bd b2a9 d23d
00000080: 732e f33b c00c 843b 46c6 273d aecc b03c
00000090: 7831 993c 9203 913d 81c4 07bd ec7b 143d
000000a0: 5592 70bd 509e a73d d104 4c3c 0634 71bd
000000b0: 778d d83c 83f8 2bbb 72cf f93c c790 02bd
000000c0: cc89 6e3d 9f2b 23bc fe86 4cbd dafd e13c
000000d0: f507 53bc 6c65 ffbb f590 993c 5f3d e33c
000000e0: ec8d 953c 9eae a13c b004 6f3b 4e4d 743d
000000f0: 06dd 573c 2766 a53c 8462 84bb 9a88 e93b
00000100: c21d 9abc 4388 40bd 5a01 df3c f02c 37bc
00000110: 67cb 693d 31fe 5f3d 5ee5 863c 0ee9 143d
00000120: e12b b53d 51bd 42bd f20c 0bbd fe0c ff3c
00000130: 288c aa3c 2aac d5bc 49b7 5cbc 4b75 68bd
00000140: 9f21 283b 1023 b1bc 1e37 a83c 4828 d63d
00000150: b731 533d 142b 033b aade 983d acde 473d
00000160: 4abc 28bd ddef 5fbd c4e3 3a3d c4b3 e63d
00000170: 7662 b93c 4b79 ae3d 0c01 d23d c31f e5bb
00000180: 6b32 003d 6b3e c63d 77f3 3b3d cd6b 0d3d
00000190: 2763 a93d 214d 173d e446 50bd 485c 30bd
000001a0: 0261 683c f589 373c 158d ac3c 1c0a e83b
000001b0: cde2 ac3d 2968 593c 2fc0 a33c d271 fd3c
000001c0: 902a f93c 6d43 c03c ca43 5c3d 3bac 673c
000001d0: 7778 d43c 0269 f93c 44e1 a63d af85 803d
000001e0: 0dcd b9bb 97dc 50bc 8858 393d ec0c 54bc
000001f0: a427 92bc ba44 1cbb 2543 4c3d b5d7 8bbc
